examples/water_tensor/dipole/frozen_model.pth (torch, 961082 bytes, 28 tensors)

min_nbor_dist f8 []
0	0xbff0000000000000	-1.0

out_bias f8 [1, 2, 3]
0	0x0000000000000000	0.0
1	0x0000000000000000	0.0
2	0x0000000000000000	0.0
3	0x0000000000000000	0.0
4	0x0000000000000000	0.0
5	0x0000000000000000	0.0

out_std f8 [1, 2, 3]
0	0x3ff0000000000000	1.0
1	0x3ff0000000000000	1.0
2	0x3ff0000000000000	1.0
3	0x3ff0000000000000	1.0
4	0x3ff0000000000000	1.0
5	0x3ff0000000000000	1.0

mean f8 [2, 138, 4]
0	0x3fa9b227c1408e4a	0.05018734201464932
1	0x0000000000000000	0.0
2	0x0000000000000000	0.0
3	0x0000000000000000	0.0
4	0x3fa9b227c1408e4a	0.05018734201464932
5	0x0000000000000000	0.0
6	0x0000000000000000	0.0
7	0x0000000000000000	0.0
8	0x3fa9b227c1408e4a	0.05018734201464932
9	0x0000000000000000	0.0
10	0x0000000000000000	0.0
11	0x0000000000000000	0.0
12	0x3fa9b227c1408e4a	0.05018734201464932
13	0x0000000000000000	0.0
14	0x0000000000000000	0.0
15	0x0000000000000000	0.0
16	0x3fa9b227c1408e4a	0.05018734201464932
17	0x0000000000000000	0.0
18	0x0000000000000000	0.0
19	0x0000000000000000	0.0
20	0x3fa9b227c1408e4a	0.05018734201464932
21	0x0000000000000000	0.0
22	0x0000000000000000	0.0
23	0x0000000000000000	0.0
24	0x3fa9b227c1408e4a	0.05018734201464932
25	0x0000000000000000	0.0
26	0x0000000000000000	0.0
27	0x0000000000000000	0.0
28	0x3fa9b227c1408e4a	0.05018734201464932
29	0x0000000000000000	0.0
30	0x0000000000000000	0.0
31	0x0000000000000000	0.0
32	0x3fa9b227c1408e4a	0.05018734201464932
33	0x0000000000000000	0.0
34	0x0000000000000000	0.0
35	0x0000000000000000	0.0
36	0x3fa9b227c1408e4a	0.05018734201464932
37	0x0000000000000000	0.0
38	0x0000000000000000	0.0
39	0x0000000000000000	0.0
40	0x3fa9b227c1408e4a	0.05018734201464932
41	0x0000000000000000	0.0
42	0x0000000000000000	0.0
43	0x0000000000000000	0.0
44	0x3fa9b227c1408e4a	0.05018734201464932
45	0x0000000000000000	0.0
46	0x0000000000000000	0.0
47	0x0000000000000000	0.0
48	0x3fa9b227c1408e4a	0.05018734201464932
49	0x0000000000000000	0.0
50	0x0000000000000000	0.0
51	0x0000000000000000	0.0
52	0x3fa9b227c1408e4a	0.05018734201464932
53	0x0000000000000000	0.0
54	0x0000000000000000	0.0
55	0x0000000000000000	0.0
56	0x3fa9b227c1408e4a	0.05018734201464932
57	0x0000000000000000	0.0
58	0x0000000000000000	0.0
59	0x0000000000000000	0.0
60	0x3fa9b227c1408e4a	0.05018734201464932
61	0x0000000000000000	0.0
62	0x0000000000000000	0.0
63	0x0000000000000000	0.0
64	0x3fa9b227c1408e4a	0.05018734201464932
65	0x0000000000000000	0.0
66	0x0000000000000000	0.0
67	0x0000000000000000	0.0
68	0x3fa9b227c1408e4a	0.05018734201464932
69	0x0000000000000000	0.0
70	0x0000000000000000	0.0
71	0x0000000000000000	0.0
72	0x3fa9b227c1408e4a	0.05018734201464932
73	0x0000000000000000	0.0
74	0x0000000000000000	0.0
75	0x0000000000000000	0.0
76	0x3fa9b227c1408e4a	0.05018734201464932
77	0x0000000000000000	0.0
78	0x0000000000000000	0.0
79	0x0000000000000000	0.0
80	0x3fa9b227c1408e4a	0.05018734201464932
81	0x0000000000000000	0.0
82	0x0000000000000000	0.0
83	0x0000000000000000	0.0
84	0x3fa9b227c1408e4a	0.05018734201464932
85	0x0000000000000000	0.0
86	0x0000000000000000	0.0
87	0x0000000000000000	0.0
88	0x3fa9b227c1408e4a	0.05018734201464932
89	0x0000000000000000	0.0
90	0x0000000000000000	0.0
91	0x0000000000000000	0.0
92	0x3fa9b227c1408e4a	0.05018734201464932
93	0x0000000000000000	0.0
94	0x0000000000000000	0.0
95	0x0000000000000000	0.0
96	0x3fa9b227c1408e4a	0.05018734201464932
97	0x0000000000000000	0.0
98	0x0000000000000000	0.0
99	0x0000000000000000	0.0
100	0x3fa9b227c1408e4a	0.05018734201464932
101	0x0000000000000000	0.0
102	0x0000000000000000	0.0
103	0x0000000000000000	0.0
104	0x3fa9b227c1408e4a	0.05018734201464932
105	0x0000000000000000	0.0
106	0x0000000000000000	0.0
107	0x0000000000000000	0.0
108	0x3fa9b227c1408e4a	0.05018734201464932
109	0x0000000000000000	0.0
110	0x0000000000000000	0.0
111	0x0000000000000000	0.0
112	0x3fa9b227c1408e4a	0.05018734201464932
113	0x0000000000000000	0.0
114	0x0000000000000000	0.0
115	0x0000000000000000	0.0
116	0x3fa9b227c1408e4a	0.05018734201464932
117	0x0000000000000000	0.0
118	0x0000000000000000	0.0
119	0x0000000000000000	0.0
120	0x3fa9b227c1408e4a	0.05018734201464932
121	0x0000000000000000	0.0
122	0x0000000000000000	0.0
123	0x0000000000000000	0.0
124	0x3fa9b227c1408e4a	0.05018734201464932
125	0x0000000000000000	0.0
126	0x0000000000000000	0.0
127	0x0000000000000000	0.0
128	0x3fa9b227c1408e4a	0.05018734201464932
129	0x0000000000000000	0.0
130	0x0000000000000000	0.0
131	0x0000000000000000	0.0
132	0x3fa9b227c1408e4a	0.05018734201464932
133	0x0000000000000000	0.0
134	0x0000000000000000	0.0
135	0x0000000000000000	0.0
136	0x3fa9b227c1408e4a	0.05018734201464932
137	0x0000000000000000	0.0
138	0x0000000000000000	0.0
139	0x0000000000000000	0.0
140	0x3fa9b227c1408e4a	0.05018734201464932
141	0x0000000000000000	0.0
142	0x0000000000000000	0.0
143	0x0000000000000000	0.0
144	0x3fa9b227c1408e4a	0.05018734201464932
145	0x0000000000000000	0.0
146	0x0000000000000000	0.0
147	0x0000000000000000	0.0
148	0x3fa9b227c1408e4a	0.05018734201464932
149	0x0000000000000000	0.0
150	0x0000000000000000	0.0
151	0x0000000000000000	0.0
152	0x3fa9b227c1408e4a	0.05018734201464932
153	0x0000000000000000	0.0
154	0x0000000000000000	0.0
155	0x0000000000000000	0.0
156	0x3fa9b227c1408e4a	0.05018734201464932
157	0x0000000000000000	0.0
158	0x0000000000000000	0.0
159	0x0000000000000000	0.0
160	0x3fa9b227c1408e4a	0.05018734201464932
161	0x0000000000000000	0.0
162	0x0000000000000000	0.0
163	0x0000000000000000	0.0
164	0x3fa9b227c1408e4a	0.05018734201464932
165	0x0000000000000000	0.0
166	0x0000000000000000	0.0
167	0x0000000000000000	0.0
168	0x3fa9b227c1408e4a	0.05018734201464932
169	0x0000000000000000	0.0
170	0x0000000000000000	0.0
171	0x0000000000000000	0.0
172	0x3fa9b227c1408e4a	0.05018734201464932
173	0x0000000000000000	0.0
174	0x0000000000000000	0.0
175	0x0000000000000000	0.0
176	0x3fa9b227c1408e4a	0.05018734201464932
177	0x0000000000000000	0.0
178	0x0000000000000000	0.0
179	0x0000000000000000	0.0
180	0x3fa9b227c1408e4a	0.05018734201464932
181	0x0000000000000000	0.0
182	0x0000000000000000	0.0
183	0x0000000000000000	0.0
184	0x3fa9b227c1408e4a	0.05018734201464932
185	0x0000000000000000	0.0
186	0x0000000000000000	0.0
187	0x0000000000000000	0.0
188	0x3fa9b227c1408e4a	0.05018734201464932
189	0x0000000000000000	0.0
190	0x0000000000000000	0.0
191	0x0000000000000000	0.0
192	0x3fa9b227c1408e4a	0.05018734201464932
193	0x0000000000000000	0.0
194	0x0000000000000000	0.0
195	0x0000000000000000	0.0
196	0x3fa9b227c1408e4a	0.05018734201464932
197	0x0000000000000000	0.0
198	0x0000000000000000	0.0
199	0x0000000000000000	0.0
200	0x3fa9b227c1408e4a	0.05018734201464932
201	0x0000000000000000	0.0
202	0x0000000000000000	0.0
203	0x0000000000000000	0.0
204	0x3fa9b227c1408e4a	0.05018734201464932
205	0x0000000000000000	0.0
206	0x0000000000000000	0.0
207	0x0000000000000000	0.0
208	0x3fa9b227c1408e4a	0.05018734201464932
209	0x0000000000000000	0.0
210	0x0000000000000000	0.0
211	0x0000000000000000	0.0
212	0x3fa9b227c1408e4a	0.05018734201464932
213	0x0000000000000000	0.0
214	0x0000000000000000	0.0
215	0x0000000000000000	0.0
216	0x3fa9b227c1408e4a	0.05018734201464932
217	0x0000000000000000	0.0
218	0x0000000000000000	0.0
219	0x0000000000000000	0.0
220	0x3fa9b227c1408e4a	0.05018734201464932
221	0x0000000000000000	0.0
222	0x0000000000000000	0.0
223	0x0000000000000000	0.0
224	0x3fa9b227c1408e4a	0.05018734201464932
225	0x0000000000000000	0.0
226	0x0000000000000000	0.0
227	0x0000000000000000	0.0
228	0x3fa9b227c1408e4a	0.05018734201464932
229	0x0000000000000000	0.0
230	0x0000000000000000	0.0
231	0x0000000000000000	0.0
232	0x3fa9b227c1408e4a	0.05018734201464932
233	0x0000000000000000	0.0
234	0x0000000000000000	0.0
235	0x0000000000000000	0.0
236	0x3fa9b227c1408e4a	0.05018734201464932
237	0x0000000000000000	0.0
238	0x0000000000000000	0.0
239	0x0000000000000000	0.0
240	0x3fa9b227c1408e4a	0.05018734201464932
241	0x0000000000000000	0.0
242	0x0000000000000000	0.0
243	0x0000000000000000	0.0
244	0x3fa9b227c1408e4a	0.05018734201464932
245	0x0000000000000000	0.0
246	0x0000000000000000	0.0
247	0x0000000000000000	0.0
248	0x3fa9b227c1408e4a	0.05018734201464932
249	0x0000000000000000	0.0
250	0x0000000000000000	0.0
251	0x0000000000000000	0.0
252	0x3fa9b227c1408e4a	0.05018734201464932
253	0x0000000000000000	0.0
254	0x0000000000000000	0.0
255	0x0000000000000000	0.0

stddev f8 [2, 138, 4]
0	0x3fc3fb7edb274d90	0.15611253453117202
1	0x3fb83c599359bc27	0.0946708664648531
2	0x3fb83c599359bc27	0.0946708664648531
3	0x3fb83c599359bc27	0.0946708664648531
4	0x3fc3fb7edb274d90	0.15611253453117202
5	0x3fb83c599359bc27	0.0946708664648531
6	0x3fb83c599359bc27	0.0946708664648531
7	0x3fb83c599359bc27	0.0946708664648531
8	0x3fc3fb7edb274d90	0.15611253453117202
9	0x3fb83c599359bc27	0.0946708664648531
10	0x3fb83c599359bc27	0.0946708664648531
11	0x3fb83c599359bc27	0.0946708664648531
12	0x3fc3fb7edb274d90	0.15611253453117202
13	0x3fb83c599359bc27	0.0946708664648531
14	0x3fb83c599359bc27	0.0946708664648531
15	0x3fb83c599359bc27	0.0946708664648531
16	0x3fc3fb7edb274d90	0.15611253453117202
17	0x3fb83c599359bc27	0.0946708664648531
18	0x3fb83c599359bc27	0.0946708664648531
19	0x3fb83c599359bc27	0.0946708664648531
20	0x3fc3fb7edb274d90	0.15611253453117202
21	0x3fb83c599359bc27	0.0946708664648531
22	0x3fb83c599359bc27	0.0946708664648531
23	0x3fb83c599359bc27	0.0946708664648531
24	0x3fc3fb7edb274d90	0.15611253453117202
25	0x3fb83c599359bc27	0.0946708664648531
26	0x3fb83c599359bc27	0.0946708664648531
27	0x3fb83c599359bc27	0.0946708664648531
28	0x3fc3fb7edb274d90	0.15611253453117202
29	0x3fb83c599359bc27	0.0946708664648531
30	0x3fb83c599359bc27	0.0946708664648531
31	0x3fb83c599359bc27	0.0946708664648531
32	0x3fc3fb7edb274d90	0.15611253453117202
33	0x3fb83c599359bc27	0.0946708664648531
34	0x3fb83c599359bc27	0.0946708664648531
35	0x3fb83c599359bc27	0.0946708664648531
36	0x3fc3fb7edb274d90	0.15611253453117202
37	0x3fb83c599359bc27	0.0946708664648531
38	0x3fb83c599359bc27	0.0946708664648531
39	0x3fb83c599359bc27	0.0946708664648531
40	0x3fc3fb7edb274d90	0.15611253453117202
41	0x3fb83c599359bc27	0.0946708664648531
42	0x3fb83c599359bc27	0.0946708664648531
43	0x3fb83c599359bc27	0.0946708664648531
44	0x3fc3fb7edb274d90	0.15611253453117202
45	0x3fb83c599359bc27	0.0946708664648531
46	0x3fb83c599359bc27	0.0946708664648531
47	0x3fb83c599359bc27	0.0946708664648531
48	0x3fc3fb7edb274d90	0.15611253453117202
49	0x3fb83c599359bc27	0.0946708664648531
50	0x3fb83c599359bc27	0.0946708664648531
51	0x3fb83c599359bc27	0.0946708664648531
52	0x3fc3fb7edb274d90	0.15611253453117202
53	0x3fb83c599359bc27	0.0946708664648531
54	0x3fb83c599359bc27	0.0946708664648531
55	0x3fb83c599359bc27	0.0946708664648531
56	0x3fc3fb7edb274d90	0.15611253453117202
57	0x3fb83c599359bc27	0.0946708664648531
58	0x3fb83c599359bc27	0.0946708664648531
59	0x3fb83c599359bc27	0.0946708664648531
60	0x3fc3fb7edb274d90	0.15611253453117202
61	0x3fb83c599359bc27	0.0946708664648531
62	0x3fb83c599359bc27	0.0946708664648531
63	0x3fb83c599359bc27	0.0946708664648531
64	0x3fc3fb7edb274d90	0.15611253453117202
65	0x3fb83c599359bc27	0.0946708664648531
66	0x3fb83c599359bc27	0.0946708664648531
67	0x3fb83c599359bc27	0.0946708664648531
68	0x3fc3fb7edb274d90	0.15611253453117202
69	0x3fb83c599359bc27	0.0946708664648531
70	0x3fb83c599359bc27	0.0946708664648531
71	0x3fb83c599359bc27	0.0946708664648531
72	0x3fc3fb7edb274d90	0.15611253453117202
73	0x3fb83c599359bc27	0.0946708664648531
74	0x3fb83c599359bc27	0.0946708664648531
75	0x3fb83c599359bc27	0.0946708664648531
76	0x3fc3fb7edb274d90	0.15611253453117202
77	0x3fb83c599359bc27	0.0946708664648531
78	0x3fb83c599359bc27	0.0946708664648531
79	0x3fb83c599359bc27	0.0946708664648531
80	0x3fc3fb7edb274d90	0.15611253453117202
81	0x3fb83c599359bc27	0.0946708664648531
82	0x3fb83c599359bc27	0.0946708664648531
83	0x3fb83c599359bc27	0.0946708664648531
84	0x3fc3fb7edb274d90	0.15611253453117202
85	0x3fb83c599359bc27	0.0946708664648531
86	0x3fb83c599359bc27	0.0946708664648531
87	0x3fb83c599359bc27	0.0946708664648531
88	0x3fc3fb7edb274d90	0.15611253453117202
89	0x3fb83c599359bc27	0.0946708664648531
90	0x3fb83c599359bc27	0.0946708664648531
91	0x3fb83c599359bc27	0.0946708664648531
92	0x3fc3fb7edb274d90	0.15611253453117202
93	0x3fb83c599359bc27	0.0946708664648531
94	0x3fb83c599359bc27	0.0946708664648531
95	0x3fb83c599359bc27	0.0946708664648531
96	0x3fc3fb7edb274d90	0.15611253453117202
97	0x3fb83c599359bc27	0.0946708664648531
98	0x3fb83c599359bc27	0.0946708664648531
99	0x3fb83c599359bc27	0.0946708664648531
100	0x3fc3fb7edb274d90	0.15611253453117202
101	0x3fb83c599359bc27	0.0946708664648531
102	0x3fb83c599359bc27	0.0946708664648531
103	0x3fb83c599359bc27	0.0946708664648531
104	0x3fc3fb7edb274d90	0.15611253453117202
105	0x3fb83c599359bc27	0.0946708664648531
106	0x3fb83c599359bc27	0.0946708664648531
107	0x3fb83c599359bc27	0.0946708664648531
108	0x3fc3fb7edb274d90	0.15611253453117202
109	0x3fb83c599359bc27	0.0946708664648531
110	0x3fb83c599359bc27	0.0946708664648531
111	0x3fb83c599359bc27	0.0946708664648531
112	0x3fc3fb7edb274d90	0.15611253453117202
113	0x3fb83c599359bc27	0.0946708664648531
114	0x3fb83c599359bc27	0.0946708664648531
115	0x3fb83c599359bc27	0.0946708664648531
116	0x3fc3fb7edb274d90	0.15611253453117202
117	0x3fb83c599359bc27	0.0946708664648531
118	0x3fb83c599359bc27	0.0946708664648531
119	0x3fb83c599359bc27	0.0946708664648531
120	0x3fc3fb7edb274d90	0.15611253453117202
121	0x3fb83c599359bc27	0.0946708664648531
122	0x3fb83c599359bc27	0.0946708664648531
123	0x3fb83c599359bc27	0.0946708664648531
124	0x3fc3fb7edb274d90	0.15611253453117202
125	0x3fb83c599359bc27	0.0946708664648531
126	0x3fb83c599359bc27	0.0946708664648531
127	0x3fb83c599359bc27	0.0946708664648531
128	0x3fc3fb7edb274d90	0.15611253453117202
129	0x3fb83c599359bc27	0.0946708664648531
130	0x3fb83c599359bc27	0.0946708664648531
131	0x3fb83c599359bc27	0.0946708664648531
132	0x3fc3fb7edb274d90	0.15611253453117202
133	0x3fb83c599359bc27	0.0946708664648531
134	0x3fb83c599359bc27	0.0946708664648531
135	0x3fb83c599359bc27	0.0946708664648531
136	0x3fc3fb7edb274d90	0.15611253453117202
137	0x3fb83c599359bc27	0.0946708664648531
138	0x3fb83c599359bc27	0.0946708664648531
139	0x3fb83c599359bc27	0.0946708664648531
140	0x3fc3fb7edb274d90	0.15611253453117202
141	0x3fb83c599359bc27	0.0946708664648531
142	0x3fb83c599359bc27	0.0946708664648531
143	0x3fb83c599359bc27	0.0946708664648531
144	0x3fc3fb7edb274d90	0.15611253453117202
145	0x3fb83c599359bc27	0.0946708664648531
146	0x3fb83c599359bc27	0.0946708664648531
147	0x3fb83c599359bc27	0.0946708664648531
148	0x3fc3fb7edb274d90	0.15611253453117202
149	0x3fb83c599359bc27	0.0946708664648531
150	0x3fb83c599359bc27	0.0946708664648531
151	0x3fb83c599359bc27	0.0946708664648531
152	0x3fc3fb7edb274d90	0.15611253453117202
153	0x3fb83c599359bc27	0.0946708664648531
154	0x3fb83c599359bc27	0.0946708664648531
155	0x3fb83c599359bc27	0.0946708664648531
156	0x3fc3fb7edb274d90	0.15611253453117202
157	0x3fb83c599359bc27	0.0946708664648531
158	0x3fb83c599359bc27	0.0946708664648531
159	0x3fb83c599359bc27	0.0946708664648531
160	0x3fc3fb7edb274d90	0.15611253453117202
161	0x3fb83c599359bc27	0.0946708664648531
162	0x3fb83c599359bc27	0.0946708664648531
163	0x3fb83c599359bc27	0.0946708664648531
164	0x3fc3fb7edb274d90	0.15611253453117202
165	0x3fb83c599359bc27	0.0946708664648531
166	0x3fb83c599359bc27	0.0946708664648531
167	0x3fb83c599359bc27	0.0946708664648531
168	0x3fc3fb7edb274d90	0.15611253453117202
169	0x3fb83c599359bc27	0.0946708664648531
170	0x3fb83c599359bc27	0.0946708664648531
171	0x3fb83c599359bc27	0.0946708664648531
172	0x3fc3fb7edb274d90	0.15611253453117202
173	0x3fb83c599359bc27	0.0946708664648531
174	0x3fb83c599359bc27	0.0946708664648531
175	0x3fb83c599359bc27	0.0946708664648531
176	0x3fc3fb7edb274d90	0.15611253453117202
177	0x3fb83c599359bc27	0.0946708664648531
178	0x3fb83c599359bc27	0.0946708664648531
179	0x3fb83c599359bc27	0.0946708664648531
180	0x3fc3fb7edb274d90	0.15611253453117202
181	0x3fb83c599359bc27	0.0946708664648531
182	0x3fb83c599359bc27	0.0946708664648531
183	0x3fb83c599359bc27	0.0946708664648531
184	0x3fc3fb7edb274d90	0.15611253453117202
185	0x3fb83c599359bc27	0.0946708664648531
186	0x3fb83c599359bc27	0.0946708664648531
187	0x3fb83c599359bc27	0.0946708664648531
188	0x3fc3fb7edb274d90	0.15611253453117202
189	0x3fb83c599359bc27	0.0946708664648531
190	0x3fb83c599359bc27	0.0946708664648531
191	0x3fb83c599359bc27	0.0946708664648531
192	0x3fc3fb7edb274d90	0.15611253453117202
193	0x3fb83c599359bc27	0.0946708664648531
194	0x3fb83c599359bc27	0.0946708664648531
195	0x3fb83c599359bc27	0.0946708664648531
196	0x3fc3fb7edb274d90	0.15611253453117202
197	0x3fb83c599359bc27	0.0946708664648531
198	0x3fb83c599359bc27	0.0946708664648531
199	0x3fb83c599359bc27	0.0946708664648531
200	0x3fc3fb7edb274d90	0.15611253453117202
201	0x3fb83c599359bc27	0.0946708664648531
202	0x3fb83c599359bc27	0.0946708664648531
203	0x3fb83c599359bc27	0.0946708664648531
204	0x3fc3fb7edb274d90	0.15611253453117202
205	0x3fb83c599359bc27	0.0946708664648531
206	0x3fb83c599359bc27	0.0946708664648531
207	0x3fb83c599359bc27	0.0946708664648531
208	0x3fc3fb7edb274d90	0.15611253453117202
209	0x3fb83c599359bc27	0.0946708664648531
210	0x3fb83c599359bc27	0.0946708664648531
211	0x3fb83c599359bc27	0.0946708664648531
212	0x3fc3fb7edb274d90	0.15611253453117202
213	0x3fb83c599359bc27	0.0946708664648531
214	0x3fb83c599359bc27	0.0946708664648531
215	0x3fb83c599359bc27	0.0946708664648531
216	0x3fc3fb7edb274d90	0.15611253453117202
217	0x3fb83c599359bc27	0.0946708664648531
218	0x3fb83c599359bc27	0.0946708664648531
219	0x3fb83c599359bc27	0.0946708664648531
220	0x3fc3fb7edb274d90	0.15611253453117202
221	0x3fb83c599359bc27	0.0946708664648531
222	0x3fb83c599359bc27	0.0946708664648531
223	0x3fb83c599359bc27	0.0946708664648531
224	0x3fc3fb7edb274d90	0.15611253453117202
225	0x3fb83c599359bc27	0.0946708664648531
226	0x3fb83c599359bc27	0.0946708664648531
227	0x3fb83c599359bc27	0.0946708664648531
228	0x3fc3fb7edb274d90	0.15611253453117202
229	0x3fb83c599359bc27	0.0946708664648531
230	0x3fb83c599359bc27	0.0946708664648531
231	0x3fb83c599359bc27	0.0946708664648531
232	0x3fc3fb7edb274d90	0.15611253453117202
233	0x3fb83c599359bc27	0.0946708664648531
234	0x3fb83c599359bc27	0.0946708664648531
235	0x3fb83c599359bc27	0.0946708664648531
236	0x3fc3fb7edb274d90	0.15611253453117202
237	0x3fb83c599359bc27	0.0946708664648531
238	0x3fb83c599359bc27	0.0946708664648531
239	0x3fb83c599359bc27	0.0946708664648531
240	0x3fc3fb7edb274d90	0.15611253453117202
241	0x3fb83c599359bc27	0.0946708664648531
242	0x3fb83c599359bc27	0.0946708664648531
243	0x3fb83c599359bc27	0.0946708664648531
244	0x3fc3fb7edb274d90	0.15611253453117202
245	0x3fb83c599359bc27	0.0946708664648531
246	0x3fb83c599359bc27	0.0946708664648531
247	0x3fb83c599359bc27	0.0946708664648531
248	0x3fc3fb7edb274d90	0.15611253453117202
249	0x3fb83c599359bc27	0.0946708664648531
250	0x3fb83c599359bc27	0.0946708664648531
251	0x3fb83c599359bc27	0.0946708664648531
252	0x3fc3fb7edb274d90	0.15611253453117202
253	0x3fb83c599359bc27	0.0946708664648531
254	0x3fb83c599359bc27	0.0946708664648531
255	0x3fb83c599359bc27	0.0946708664648531

matrix f8 [1, 25]
0	0xbf7d823cdb87215e	-0.007204282498101426
1	0x3fc5f97670eac33e	0.17167549623038697
2	0xbfd5f4727d7b58c5	-0.3430448747070723
3	0x3f93f2cbe6a6c56b	0.019480882599684984
4	0x3fc9770ce6d67e32	0.1989456298006061
5	0xbfba6e219f401121	-0.10324297082849344
6	0x3fce005058dd80dc	0.2343845781242696
7	0x3fba897930ce72a2	0.10366017762721438
8	0xbfd12e35257db6df	-0.26844528828847375
9	0x3f96a58e1b4e9c15	0.02211591760319827
10	0x3fc93e1ea38ae37f	0.19720824227786335
11	0xbfafeff0243a0168	-0.06237745706767123
12	0xbfa325de9732dc0a	-0.03739829631506815
13	0x3faa3ced5e574487	0.051246087805005884
14	0xbf7813d1248ef198	-0.005878273929678456
15	0x3fd33a3002dbffb8	0.30042648581729336
16	0xbf9b3820f063aa7d	-0.02658130137653324
17	0x3fcbc08ba079143a	0.21681351981729496
18	0x3fc1852efd615df2	0.13687693950735952
19	0xbfc9cd439a60a8fc	-0.20157666242568684
20	0x3fc0617429c66a96	0.1279740528087429
21	0xbfbb9016d9d7ff53	-0.10766737764788319
22	0xbfd9b916118b6b9d	-0.40192176545468233
23	0x3fcd7b1601331e25	0.23031878527238905
24	0xbf8d3702e0b43f69	-0.014265081865715694

bias f8 [25]
0	0xbfdcf9d09c0acab2	-0.452747490296285
1	0xc00095c40c819f34	-2.073127839761492
2	0xbfe84140a96169d0	-0.7579654033864305
3	0xbfd6cf3091b302d1	-0.3563958571285584
4	0xbff09450a15715f2	-1.0362097074843146
5	0xc0009f2ff6909ed2	-2.0777282011875764
6	0xbfea6edac49c4fd3	-0.8260320510912557
7	0x3ff50dcf2a347c3d	1.3158713959344503
8	0xbfd329fb4b47d964	-0.2994373545801834
9	0x3f72728c4c245e10	0.004503772770724904
10	0xbfe1c0adeff72622	-0.5547704397988051
11	0xbfd081a12b09ac47	-0.2579119606295461
12	0xbfe22cf333633cdb	-0.5679870608963954
13	0xbfe6ef18c597b3e3	-0.7166866168241736
14	0x3fdd9684ace87aa3	0.4623119057231781
15	0x400120ab0c21afe0	2.140951247003599
16	0x3fe91de5e73a7d24	0.7848996654683202
17	0x3ff26e2ed4cae789	1.151900130482746
18	0xbff6cb2e57ed2d8d	-1.4246047434452038
19	0x3fff6a7f0fccf18e	1.9635000817498596
20	0xbfc274f403802f7b	-0.14419412775930227
21	0x3fda39640fe002c8	0.40975286054894555
22	0xbff6652b5910d8f7	-1.3996995429166057
23	0x3fe2b2a2f2f59553	0.5843062157916087
24	0xbfeba28dde961f3a	-0.8635930392638109

matrix f8 [25, 50]
0	0x3f67fcf5a241a3e7	0.0029282376799994905
1	0x3fb14953c0881b67	0.06752513361435107
2	0xbfbd188133ae1c53	-0.11365516196939156
3	0x3fae1475b4e477a7	0.05874984582099723
4	0x3f61f92eda631f03	0.002194015035545395
5	0xbfcb4b3c00f02426	-0.21323347135356235
6	0x3fbea3a5cb2e5cd9	0.11968456469036272
7	0xbf958f188da5d7cc	-0.02105368008184154
8	0x3fac155b39690824	0.05485043597992981
9	0x3fc617425d82d0f0	0.17258481565443828
10	0x3fcaf23b346faa26	0.21051731167183724
11	0x3fb0d239f4fe214d	0.06570780020968421
12	0x3fcbfe11bba988f7	0.2186910787887155
13	0x3fcf60e5d2ea08de	0.245144584641884
14	0xbfb28eb534cc853b	-0.07249004878078306
15	0x3f9e10de309b92b1	0.029361221043375966
16	0xbfb4171963217b45	-0.07847746534524187
17	0xbfb10e2602fbc034	-0.06662213871800376
18	0x3fcc60f7b5c02d6b	0.22170921682878073
19	0xbfc6ed17d6b7e732	-0.17911050781531795
20	0x3fa4266972eff91b	0.03935555961651201
21	0xbfa14e73fec288a6	-0.03380167469846755
22	0xbfb32b6b7afbe561	-0.07488128426111508
23	0x3fb1fdc2dc059202	0.07027833816170673
24	0x3fb70fd7bc41988b	0.09008549066638431
25	0x3fc1536fd09f3b41	0.13535878836270324
26	0xbfcd2299d2aacb54	-0.22761843477709454
27	0x3f72fa8d1a1a69f7	0.004633475474884899
28	0x3fc836a996567266	0.18916816559512312
29	0x3fc84602130c883b	0.1896364777576894
30	0xbfa7f0ecf4eafc20	-0.046759991547780766
31	0x3fcc01e0a6d4db98	0.21880729814594413
32	0xbfb66a53526b02d0	-0.08755989801558006
33	0xbfc724e3bdcb18d7	-0.18081328170064268
34	0xbf9efe8b4bd60a3a	-0.030267883781116313
35	0xbf986f4c4f0ec54d	-0.02386206848649879
36	0xbfa9dc57c7ef09f4	-0.05050920787427407
37	0xbfd0f837b93e5722	-0.2651500042933198
38	0x3f7c3dddab04ee15	0.006894937411114484
39	0xbfc1545e1f8cac13	-0.13538719692709886
40	0x3f974a8b2faf11be	0.02274529913462841
41	0xbfb95474c0d4dd8b	-0.09894494731712748
42	0x3fab597352f57adc	0.05341682803804357
43	0xbfa6635af4e947d1	-0.04372677077903087
44	0x3fc4ea5de35b99ba	0.16340230561691077
45	0xbfb6207b48e28dba	-0.08643312959116303
46	0xbfac37cd0f8c000d	-0.055113227985202774
47	0xbfb88ba6d103b79b	-0.09588091471570552
48	0xbfc3cbe5d31286a2	-0.15465996557491218
49	0xbfb838aa405d1e4f	-0.0946146399629637
50	0x3fa52d85df522070	0.041362937460747484
51	0x3fa463846c8e9fee	0.0398217566028619
52	0xbfc5cb8842a3e5b6	-0.17027381185452634
53	0xbfc3a826fee2c21c	-0.15356910176844074
54	0x3f90cebe9480add6	0.016413667501337624
55	0x3fb5aab99216d990	0.08463630501396424
56	0x3fa5187de237cd7a	0.0412024820942873
57	0xbf9d710556b2b9f2	-0.0287514528433181
58	0x3fb4ee75f39d0a8f	0.08176362226098831
59	0xbfa0c2192a18286a	-0.032730852497551435
60	0x3f9bcc17edf4c731	0.02714574231976669
61	0xbf99558497c5b58b	-0.024740287555166367
62	0x3f758292cd159570	0.005251477662885903
63	0xbfccb718417d0424	-0.224337608315211
64	0x3fb3336208208ea9	0.0750027913896313
65	0x3fc71c8054782d01	0.18055729031070913
66	0x3fa3edb4fe3e4464	0.0389229355197436
67	0xbfb922c1e0e112b7	-0.09818660488333363
68	0x3fb63ae8aaebf28d	0.08683637783901528
69	0x3fb9345a2487b57c	0.0984550799546095
70	0x3fbcd0173b1618fa	0.11255021278893543
71	0x3fb5890b237cdb89	0.08412236801528485
72	0xbf83b811bb81daa7	-0.009628428015486646
73	0x3fc3709940fd3064	0.1518737380341718
74	0x3fc2d65fb2fdbaee	0.147167169950499
75	0xbfd3e524cf743b30	-0.31086082705671725
76	0xbfc2378fc3af2899	-0.1423206048478434
77	0x3f9d82ae1bfac74f	0.028818817575206265
78	0x3fcb2044ece2207f	0.21192227903907576
79	0x3f9f553d90838fb8	0.03059860415022772
80	0xbfb62ef3c8da4e48	-0.0866539349902321
81	0x3fb0d7d3ba476c9a	0.06579325959994478
82	0xbfd15363f11e1f9f	-0.27071474596641026
83	0x3fc4de279a8eb7c4	0.16302962347748295
84	0x3fa38ee32d1c0cd8	0.03819951940206473
85	0xbfae9dcd399c7765	-0.059797681124321746
86	0xbfb4825aec2d89a1	-0.0801140619856029
87	0xbfb39135839cc1d0	-0.07643446410361965
88	0x3fac4a6a17ff27c9	0.055255237035069245
89	0xbfb594f5f6613a59	-0.08430421128398659
90	0x3fc402f0cae22457	0.15633973986067204
91	0xbfb2447ca3f47ed8	-0.07135752680596441
92	0xbf9d36a14a0b4c7e	-0.028528709549231916
93	0xbfc6680a13184256	-0.17505002910958706
94	0xbfc38407acd355b2	-0.15246673525568394
95	0x3f9e169cf02827b2	0.029383136899958813
96	0xbf98bfba5d9dae92	-0.024168884242881612
97	0xbfcdd584a0253e9d	-0.23307855434039917
98	0x3f9839269a7a287c	0.023655512980021318
99	0xbfa7866dce29924e	-0.045947486320788586
100	0xbfa4c3fe6f2d0462	-0.040557814666052364
101	0xbfcdd524a650d2dc	-0.23306711312183992
102	0xbfaac9bfa707fd54	-0.05232046998934928
103	0xbf9d04f490dbc500	-0.028339215604266776
104	0xbfb8f00eb8a98b77	-0.09741298683506537
105	0x3fb2c7ef53ce75fa	0.07336326404625729
106	0xbf9872df074c1aec	-0.023875698871985415
107	0x3fa474a62f231651	0.03995246243861728
108	0x3fb99d2f2d54e6de	0.10005469185571367
109	0x3f9164b83ba71283	0.016985777512462007
110	0xbfb9d313ecb13e2d	-0.10087704208967159
111	0x3fa3421663d8509e	0.03761358231364052
112	0xbfcedeba2495905e	-0.241172092307468
113	0x3fa8ef688c0fc44c	0.04870154103981203
114	0x3f99296bf74789cc	0.02457207390569653
115	0x3fb5bf18197490dd	0.08494711514919424
116	0xbf9042cb309a271d	-0.01587979778427161
117	0x3fc215fc0558f32e	0.1412959123716972
118	0xbfac4fa36af5afce	-0.05529509239826745
119	0x3fc30d900c93530e	0.14885140050923734
120	0xbfbf740b25b0d959	-0.12286443395791959
121	0xbfa3089dbaf4feb3	-0.03717511088552552
122	0xbfc4ba3ca4ec6a91	-0.16193349888711286
123	0x3fb14331a7d6e866	0.0674315485729565
124	0x3fbc6d200eaabb6e	0.11104011877135431
125	0x3fc195c6f59cc836	0.13738333695215638
126	0x3fcc4f5372ea2583	0.22117083655420453
127	0x3faa5298b1528881	0.051411410947609155
128	0xbf94e1d7e2a764ac	-0.020392773827414487
129	0xbfbfb22e3afaca33	-0.12381256999905403
130	0xbfc167ee4aa0ae0d	-0.13598421710899836
131	0x3fa4e4f0f412b8d5	0.04080918292435035
132	0xbfd541ef41ba6a33	-0.33214932841079586
133	0xbf823ae217a09a45	-0.008901373239564534
134	0xbfca7fa4904c3e20	-0.20702034993927132
135	0x3faec7e2a34424d3	0.06011875384326406
136	0x3fb093abd09c944d	0.06475328295762602
137	0x3fba685660ba6410	0.10315456258321398
138	0xbfb1dc0aa8081b86	-0.06976381876311963
139	0xbfa200d3184df4ea	-0.03516254111944213
140	0x3fbc8c6e4824658a	0.11151780377658418
141	0x3fc1dce9d3fa9ae1	0.13955424166234479
142	0xbfbdf712c5440e89	-0.11705128971157754
143	0x3fb12a7867266bd6	0.06705429571449825
144	0x3f62c930de7a48a3	0.0022932009195040944
145	0xbfc6fa8bfab7b56a	-0.17952108137198347
146	0x3fb68a75e32840d4	0.08805023952322993
147	0xbfb1c3e5b59d0885	-0.0693954056160085
148	0xbfc8b6deaa8755f0	-0.1930807430896233
149	0xbfc094dc33ac05de	-0.1295428516678347
150	0xbf31ccf906499624	-0.00027161674214534943
151	0x3fb7feaa2ad7209b	0.09372962518603105
152	0xbfa8459169e14078	-0.04740576188544393
153	0x3fbd618cd7f86809	0.11476974747384373
154	0x3fb3aa7c6cf23614	0.0768201604825765
155	0xbfb96d83ce3cb73a	-0.0993273142346113
156	0x3fa248ba3a95a95f	0.035711116458360996
157	0x3fa79deb15b3e9bb	0.04612669601370408
158	0xbfce379b22fcb75c	-0.23607196052892732
159	0xbfb5640ca552a9ec	-0.08355788265422576
160	0x3fc74a1374d5dc6c	0.18194812016347173
161	0xbfb28e93f7263861	-0.07248806747358706
162	0x3f9a5b26cc87afd6	0.025738340600511687
163	0xbfb305511f6bf0cc	-0.07429987923746068
164	0x3fc02de512d63177	0.1264005987144505
165	0x3fb3d842b67aba86	0.07751862483085334
166	0x3fc953338783def7	0.19785160176228775
167	0xbfa04eb5078a286a	-0.03185048787152385
168	0xbfbc2514c7747a03	-0.10994081372744095
169	0xbfc3355a4da14820	-0.15006569662597347
170	0xbfb3046521f8b86b	-0.07428581313499343
171	0xbfc10863e207ad72	-0.1330685475980818
172	0x3fc44c1ca4dd947e	0.1585727505691103
173	0x3fae1243858e5169	0.058733091405119016
174	0xbfbca2520475b628	-0.11185181244737719
175	0x3fbcaffb9d57a266	0.11206028548589017
176	0x3f9cc67c466e62a1	0.028100911902216755
177	0xbfa06476ffb02b99	-0.03201648589318679
178	0xbf9f23a7c22c2ff5	-0.0304094517005495
179	0xbfa3d28f765d1911	-0.038715823363007947
180	0x3f9785b6cd8223b2	0.022971016209826174
181	0x3fac6e6ed995bf38	0.05553003698412201
182	0xbfb7c6e6e11ee446	-0.092878751717664
183	0xbf9e32899d5d73c1	-0.029489660482216132
184	0xbfa7def6b7b697ad	-0.046622953344282216
185	0xbfc4331362508c86	-0.15780870724220025
186	0xbfb049332991a9c6	-0.06361694111698232
187	0xbf98effb783ce7f1	-0.024352959836711766
188	0x3fcd8aee6be38c67	0.23080234783182904
189	0x3fa6399590dbeda0	0.043408082898135136
190	0x3fcb40432459d0a3	0.21289862894957876
191	0xbfb24ea0011bcf2d	-0.0715122225481621
192	0xbf82b437798d1613	-0.009132798573442213
193	0xbfd538c883c70dc0	-0.33159077519323077
194	0x3fbf8197624473fd	0.12307115697008437
195	0x3f8ae4f996a950a3	0.013132047567673338
196	0x3f787fdb03635d7d	0.00598130752606296
197	0xbf93c0cf9e18d626	-0.01929020311782472
198	0xbfbe5772f5b61aff	-0.11852186678707353
199	0x3fcc3dd37976db56	0.2206367819869352
200	0xbfa95f97be3f294b	-0.04955743977878287
201	0xbf86b80532b59af2	-0.011093178377178135
202	0x3f9e6cdf36f1c843	0.02971218846182234
203	0x3fba6683ef168d14	0.1031267603598745
204	0xbfc1645352319707	-0.13587419045796187
205	0x3fbd386a0e7f8e63	0.11414206365548689
206	0x3fbab068a20dbaa2	0.1042542834891074
207	0x3fb905528b76221a	0.09773746399708508
208	0x3fad03d01b314f91	0.05666971523228804
209	0xbfcd4924d3ec3df1	-0.22879467342180207
210	0xbfca0f960576ee76	-0.20360064760994917
211	0xbf4d2da95aaf19ef	-0.0008904530453655561
212	0xbfb3fb957176ef3c	-0.07805761356479207
213	0x3fbee42d996ce0e8	0.12066922183737783
214	0xbfb42a53f1469d56	-0.07877087250255008
215	0xbfa3c7fa2ac5afff	-0.03863508007165705
216	0xbfb3a154d1816cf0	-0.07668047060854
217	0xbfa9b5e7d144495f	-0.05021595410848322
218	0xbf9cdaa7a2a31497	-0.028177851964546887
219	0xbfc3a87a0c4c6467	-0.15357900238521724
220	0xbfd1a2f9f2ecadd8	-0.2755722877797928
221	0xbfc79fe2d9aa5d80	-0.18456683757970538
222	0x3fb0da03bb8440ce	0.06582663848917322
223	0xbf864aa02fbf9fee	-0.010884524781388873
224	0xbfa3fadd63e86ca0	-0.039023321576871384
225	0xbfbcf78bd2e8fb34	-0.11315225505039167
226	0x3fb65b8087d10d89	0.08733371082148812
227	0xbfc5ffc6a0078693	-0.17186816038070116
228	0xbfcbc9fbfc773592	-0.21710157229828703
229	0x3fb8bdbf1de43f7c	0.0966453025796436
230	0x3fa621fd776c5542	0.043228073909782797
231	0xbfbd00028eb15969	-0.11328140243253916
232	0x3faa92305a1a0be3	0.05189658260226062
233	0x3fc249ce602eda95	0.14287738510548267
234	0x3fc2cd655b4dda01	0.14689318617065797
235	0x3fb35a481c26d98d	0.07559633910464054
236	0xbfb33a3a9446370d	-0.07510725135781744
237	0x3f850989fee4f041	0.01027210053563732
238	0xbfd04b4e463dd49b	-0.25459629878543816
239	0x3fa33abe242a1c0d	0.037557546534166965
240	0xbfbe5dc74f6e32bd	-0.11861844720096833
241	0x3fb9d002f212dfba	0.10083025369647106
242	0xbfad1fe95982becc	-0.056884090592004805
243	0x3fb480c473664f68	0.08008983437895056
244	0xbfb6ad0d7b60eef9	-0.08857807409452424
245	0x3fc98b2ed9bef33f	0.19956002838253004
246	0xbf9164870715389b	-0.01698504429560242
247	0xbfa16d697e40b0b3	-0.03403787294550522
248	0x3f92575e6137f54b	0.01791141003012812
249	0x3fcdf21fbaaaf276	0.2339515363181765
250	0x3fbc18f11e560bad	0.1097555827200682
251	0xbfb812dadbad1b45	-0.09403770316303646
252	0x3f4d6310b1cdc6af	0.0008968192592943759
253	0x3f933f5d3e713df9	0.018796402870348648
254	0xbfce01cf65a98ca4	-0.23443024124126055
255	0x3f8e0057aec15580	0.014649090786557961

bias f8 [50]
0	0xbff64b6c437d2aed	-1.3934137951170513
1	0xbfec88eec43836b1	-0.8917154152311096
2	0x3fce487e99d450b6	0.2365873576278596
3	0xbfcd113bddd57d39	-0.2270884354756875
4	0xbff2ac5c30d960cb	-1.1670801075143113
5	0x3fda2ecf406f6756	0.40910702984330294
6	0x3fd434457ab6bb31	0.3156903932930844
7	0x3fefca5b361adc5d	0.9934516960846725
8	0x3ffdd3ad173b64fe	1.8641787440777189
9	0xbfeac5f47bb4f4f4	-0.8366644302510893
10	0x3fe57ebf43216654	0.6717220603124567
11	0xbfec28efaf5f5385	-0.8799971032373014
12	0xbfc5cf7b0d96b9f3	-0.17039430774225614
13	0xbfcc497e65f6caba	-0.22099285105431027
14	0xbfd77c57d0b2f691	-0.3669642961575415
15	0xbf8d661e3c165d52	-0.014354931076737163
16	0x3ff93a9f3c0d0a1e	1.5768120141734765
17	0x3fd27f453c1a1af3	0.2890179717000329
18	0x3fee8faf55b5e77a	0.9550396608385505
19	0x3fccce421d9b5dde	0.225044502693648
20	0x3fe3d96d24eb05de	0.6202913018279863
21	0xbffc614fa518daba	-1.7737575959305745
22	0xbffc029bce0e031f	-1.7506368683827487
23	0xbff69e6e18ec2c73	-1.4136792157685505
24	0x3fc9702a117114cf	0.19873548366209667
25	0xbfeb431a3b7c78e5	-0.8519412195053319
26	0xbfe27a3ae0bf60ce	-0.5774206533051485
27	0xbffcaf98994301b9	-1.7928701388155857
28	0xbfef23e69f94dd1a	-0.9731324307275913
29	0x3fa1fe44344846da	0.035143023855324265
30	0xbfe82c626247e183	-0.755418006853731
31	0xbff76e71d4f5fa0e	-1.4644640272887304
32	0xc001dead75501434	-2.2337292828620097
33	0x3fdc2aad12a0a867	0.44010474032496066
34	0x3ff3e9bfc1532b1e	1.244567637610721
35	0x3ff11bfd0d108bec	1.069333125146609
36	0x3fcbdd938f91c9d4	0.2176994753859406
37	0x3fbdf342e376b693	0.1169931226092678
38	0xbfcb8546dfe006a6	-0.2150047867908615
39	0xbffb33e20e998d9a	-1.7001667566590641
40	0xbff336357c8c42df	-1.2007346024658359
41	0x3fa9c1f7bf07f410	0.05030798155710425
42	0x3fc348e5786fc3d4	0.15066212063496087
43	0xbfe891fc51f54322	-0.7678205109351419
44	0x3ff18b93520b278c	1.0965760426356352
45	0xbfe9ee72fcd6df54	-0.8103575647610151
46	0xbfb66b68612f2ca8	-0.08757641194022148
47	0x4004062a0bf08a84	2.5030098850996314
48	0xbfe80f6c5d21a046	-0.7518827265712467
49	0x3fe2809c40d95b96	0.5781995073874551

matrix f8 [50, 100]
0	0x3fbe2389b8f54c99	0.11772976651745849
1	0xbf8ed491c0d7ac1d	-0.015053881356797355
2	0x3fae1585cd575958	0.058757954898896514
3	0x3fc2feba268a0aaa	0.14839865571783167
4	0x3f8ab4cea4f8c36d	0.013040174874818533
5	0x3fb2e26f8ddbeeef	0.07376763547284403
6	0x3fc6b1bbdec4e425	0.17729900720021977
7	0xbfb55ec3974d7f07	-0.08347723430551578
8	0xbfb1cb3b38b829ae	-0.0695073140597404
9	0xbfb3dae7df988edb	-0.07755898674855237
10	0x3fbd22c9d9773d16	0.11381207999442142
11	0x3fadc990939d32d5	0.05817844201974302
12	0xbf9682e2c88470e7	-0.021983664978606845
13	0xbfc7a9bfc58d3363	-0.18486783166954543
14	0x3fb724846a934d38	0.09040095903337864
15	0xbf9da4f3599e8900	-0.028949549050261147
16	0x3fc6e7a6d4071210	0.1789444480219946
17	0xbfa4a6006deadc7d	-0.040328992288260125
18	0x3fbc6e71ebd52547	0.11106025703079069
19	0x3fa0c497727f78cc	0.03274987480811972
20	0x3fadfb086507b21b	0.058555853207369966
21	0x3fcbb80fdd97941e	0.2165546257012076
22	0x3fb24d6995c84e3c	0.0714937201194567
23	0x3fbc297408f8d908	0.11000752657932733
24	0xbfab67276158291c	-0.05352137625966888
25	0xbf7dba0d51748106	-0.0072575111619530615
26	0x3fb28277cef00684	0.07230328371226774
27	0x3fac6ae714ddd3ad	0.05550310258596567
28	0x3faa21bc406277a0	0.05103863035149847
29	0xbfab8ff311837598	-0.05383262242115022
30	0xbfb9b5e64297b37b	-0.10043181539340466
31	0xbfa6f0e8d51b0fd8	-0.04480674363506382
32	0x3fb05fdd6a301722	0.06396278231121902
33	0x3fb122e4f26dee82	0.06693869513213183
34	0xbfa7ebc4a0a26407	-0.046720642670329986
35	0xbfb4b2f79578e702	-0.0808558216021105
36	0xbfb26a914a57641b	-0.07193859162306675
37	0xbf9f18599cf8f9b5	-0.03036632557472681
38	0x3fa35c0d0d85babf	0.03781166830127835
39	0x3f9668f65e1ea04c	0.021884774679762395
40	0xbfbbcc14a303d5bf	-0.10858277301652829
41	0xbfc8c07b5cc445bf	-0.19337408094047068
42	0xbf691a7e7d9c9bb1	-0.003064391185847858
43	0xbfa0bc4a38f5ab69	-0.0326865381747073
44	0xbf8e91c03cc2f374	-0.01492643533162561
45	0xbfa529bf5db650cc	-0.04133413332888977
46	0x3fabcc057996da80	0.054290934650841116
47	0xbfc5d6394d927ed0	-0.17060009277064703
48	0x3fad36d48247f7da	0.057058945563752864
49	0xbfbbdab7f900d4da	-0.10880613164120537
50	0xbf8423fbb3277cf3	-0.009834257511953192
51	0x3f8b3482be9eebbf	0.01328375000217885
52	0x3fbf0f8f001cdaa7	0.12133115532638304
53	0x3fa2555ca3013211	0.03580750932505706
54	0xbf9ef67029570e60	-0.030236961863705836
55	0xbf96ebd9adb8fc3e	-0.02238407252138707
56	0xbfa21dd0e1774252	-0.035383727572143045
57	0x3faef75e231ec8e2	0.06048101595605872
58	0xbfb0d3b577ef6b6f	-0.06573042085748936
59	0x3fac2aa093cdf7d6	0.05501272014861029
60	0x3f983c9cad735e59	0.02366871651324085
61	0x3f8125154386b9db	0.008371511576879811
62	0x3fb2c0b6ab5bb706	0.07325307544280343
63	0x3facef2e84ac015d	0.05651231164484003
64	0xbfb9fbdb36ea2d53	-0.10149927225773085
65	0xbf627c578a76f763	-0.0022565564902085485
66	0xbfb799fd247aff5c	-0.09219343319545942
67	0xbfbed5995dce4f29	-0.12044676342185014
68	0x3fb70871c5af5a1e	0.08997260166447815
69	0xbfa6db283bea4253	-0.04464078647027194
70	0xbfb4a9e586fa2136	-0.08071741624201398
71	0x3fa9ec2511fd9fd7	0.05062976688969883
72	0xbfc144dcf5f9e84a	-0.13491403589779544
73	0x3fc6321177cd83ef	0.17340296125169583
74	0xbfa198773ca200ac	-0.03436634650370371
75	0x3fa34a72b54a2a37	0.03767736876496424
76	0xbfbfa8d12ab51501	-0.12366969387683825
77	0x3fb8d376fe0db1d6	0.09697669699170972
78	0xbfc2241b5e61bdde	-0.14172689541326994
79	0x3fac51e7cb28d960	0.05531238894438917
80	0xbf92a555d0266f90	-0.01820882876346236
81	0x3fa4cd1f8864c0c4	0.04062746562920119
82	0x3f6ac7d04c51aa22	0.0032691067049672876
83	0xbfb082ed6bdcc4f3	-0.06449779399260418
84	0x3fc6891e09ed4c5f	0.17605948910440625
85	0xbfc5ca942fcf57b9	-0.17024471601933813
86	0xbfb4a8d8c8b95c9e	-0.08070139790048578
87	0xbfc1fe4a46b075fc	-0.14057281924844733
88	0xbfc1b8283a52553f	-0.13843252990469954
89	0xbf8699c800d1c0e3	-0.011035501980785905
90	0x3fc1d9a5623686e8	0.13945452971989103
91	0x3fa9060351e6f50b	0.048874000308822906
92	0x3f908b6d0089b8d6	0.016156867177806365
93	0x3fca19ee92344945	0.2039163793456941
94	0x3f916d4d4841f49c	0.017018516097313183
95	0xbfab978ec808b909	-0.053890668791028835
96	0xbfc433b9a709b6bf	-0.15782852798604627
97	0x3fa380ed20449041	0.03809300440687525
98	0x3f95ac807fa9ecf3	0.021165855209329853
99	0x3f760cd0c6afdf35	0.0053833155934553305
100	0xbf73c9ad0ad167c2	-0.004831005045241756
101	0xbfb806c929eeb783	-0.09385354303114295
102	0x3fc0834ace81289f	0.1290067203829652
103	0x3faf4e94870e221d	0.061146394239646386
104	0xbfbe65f9906d3095	-0.11874351287878178
105	0xbfb11e9184dbd940	-0.06687268727896356
106	0x3fa7b5ebd3f74fea	0.046309823632014815
107	0xbfc86bf4db1cc8a4	-0.19079456995820465
108	0x3fa4e60e2552910e	0.04081768231961479
109	0x3fbb3c1447ca66f8	0.10638548615170496
110	0xbfb3db26d7162e8c	-0.0775627398599516
111	0xbf95a36a3dcefa3b	-0.021131191275111965
112	0xbf96922b929db226	-0.022041970084886973
113	0xbfb6ff2c581bfed2	-0.08983113432986592
114	0x3fb5c0afc144c08c	0.08497141331167962
115	0xbfb477f14467af31	-0.0799551765446125
116	0xbfb192185274169b	-0.06863548291229409
117	0xbf9466d7755c5706	-0.019923559702042425
118	0xbfb836f0c54f184a	-0.09458832566369427
119	0x3fb71baf9ee2caaf	0.09026620511103077
120	0x3fb1955798892565	0.06868503068939942
121	0x3f9e3af1698841d5	0.029521724764039654
122	0x3fa27e83794eb1f1	0.03612147193721061
123	0xbf9faf0fef099481	-0.030941246952711502
124	0xbf9b758a4ac60532	-0.026815567792714386
125	0x3f962a0954f3f0db	0.021644731340516237
126	0x3f9714a1086e9743	0.02253963102307145
127	0xbf8e9aa267105560	-0.014943379183061267
128	0x3f8e68cebb05451f	0.014848342020430892
129	0xbf9eaa4f4f40231d	-0.029946555339878878
130	0x3fba28ca0a05a62a	0.10218489403418887
131	0x3f8e0eebbe4f10ea	0.01467689680601621
132	0x3f8f1d6dcc0da461	0.015192849912368968
133	0xbfba1581e153d125	-0.10189067603261444
134	0xbfbd957b5a2b996e	-0.11556216193603117
135	0x3f7811070afad38f	0.005875613700187978
136	0x3f8a6f17b094e033	0.012907204700795294
137	0xbf8e6afb5ae7a720	-0.014852489196488572
138	0x3f90ed1d73d6dc41	0.016529522128362343
139	0xbfc923c48244d566	-0.19640404091630187
140	0xbfaf88c06a22f8f9	-0.061590207058076225
141	0x3fab3c8014702aad	0.05319595574845457
142	0xbf90827d92246ee8	-0.01612278179628293
143	0xbf800291ba4cdfbd	-0.007817400453504203
144	0x3fabc87d3827e3e1	0.054263985733946425
145	0x3faedac1b93ccf97	0.06026273142052146
146	0xbfbe58afdb4df6cb	-0.11854075531115453
147	0x3fcd5bb3d6335e6e	0.2293610378171595
148	0x3fb587b0315fd91f	0.08410168843679287
149	0xbfa9fb81989dcf27	-0.05074696529382399
150	0x3f9ead9a2efaee67	0.029959115140384542
151	0xbf9b8c1ff2eb386c	-0.026901721192921377
152	0x3fbdd79ef8191778	0.11657136494713238
153	0xbf7add636020cd54	-0.006558788476513772
154	0x3fb037ca8fcbed0d	0.06335130701693377
155	0xbf9f9f1a454d4785	-0.030880365829325313
156	0xbfb79919a72ee923	-0.0921798737680644
157	0xbfb5f2f304b01907	-0.08573836197328798
158	0xbfb34c709847e577	-0.07538512914461203
159	0xbfb130a72a47b825	-0.06714863569479286
160	0xbfba2eb5e49f76bd	-0.1022752459679976
161	0x3faa55bf23aa19fb	0.051435444930621764
162	0xbfa1449b68ee5455	-0.033726555403668236
163	0x3f71341d56fa26e9	0.0042000909885559845
164	0xbfb9adae80ba6342	-0.10030642168784445
165	0xbfb89036a2b871a4	-0.0959505221621329
166	0xbf929632f054e8da	-0.018151088637048264
167	0xbfaf34417ad06f5a	-0.06094555496403471
168	0xbfb20a089c1b7739	-0.07046560107434353
169	0x3fa503069e63c1b7	0.04103871043651302
170	0xbfa3c560e5d36581	-0.038615253500846165
171	0xbf7780e9dcb0a683	-0.005738175891602307
172	0xbfb258c417d90b0a	-0.07166696150038035
173	0x3fa03fa71c89b1a2	0.03173563216555243
174	0x3f8d38e42dca48ac	0.014268667838482983
175	0xbfb752a44f1102a1	-0.09110476427395976
176	0xbfb5d64cf0f3e1ac	-0.08530121691354137
177	0xbf53c51f3be9db85	-0.0012066655177968854
178	0x3fc43a356a1a9e18	0.1580263870321097
179	0xbfa025699472d826	-0.03153543412319974
180	0x3faf1a23104e1593	0.060746284237249835
181	0xbf9236bcf0e1ee64	-0.017786934091857623
182	0x3fab9ea9a4a5783b	0.053944875095780685
183	0xbf82c0d57d80d7a9	-0.00915686406379364
184	0xbfb138da5f47e242	-0.06727375818435014
185	0xbfbfe34bd4b48ef5	-0.12456201498985904
186	0x3f8bfb46f9d90898	0.013662867069005366
187	0x3fb0a46ebc003cbe	0.0650090416895521
188	0xbf928451b9c876a5	-0.018082882847116583
189	0xbf87923c5530de3d	-0.011509391164607691
190	0x3f7433270e2e25da	0.004931595382808374
191	0xbfb8c723e47e3b09	-0.09678863838619746
192	0xbfa2e4d180a21ea7	-0.03690199561338874
193	0x3fa07ecf7c860108	0.032217487288109636
194	0x3f82fe9c6089cbd1	0.009274694152940828
195	0x3f739b0f8b3e3334	0.004786549299649324
196	0xbfc0d6c1d7e6a0d5	-0.13155386964832042
197	0x3fb409db14747397	0.07827538728129323
198	0x3fbc0787c6a9ca38	0.10948990440537265
199	0x3fb781d84180df35	0.09182502364353413
200	0xbf9788d55c923c6d	-0.02298291566381432
201	0x3fa2033447c376ea	0.03518069625873273
202	0xbf9cf3072bce0ee5	-0.028270828293456857
203	0x3f82138d42d44897	0.00882635460087426
204	0xbf92fc66737f5b23	-0.01854095535221768
205	0xbfac2a1f3dd560c9	-0.05500886564067426
206	0xbf933f4e9c0cad97	-0.01879618480158526
207	0x3fc095d3dc342337	0.1295723748410411
208	0x3f9dd65b6acb9518	0.029138019936813725
209	0x3fafbe4f4bc73df5	0.061998823166160046
210	0x3fa36bb7fd0c4c0b	0.03793120349850917
211	0xbfb647900f73d386	-0.08702946069008818
212	0x3fafa9922facb34a	0.061840599364905005
213	0xbf7884cee36f7632	-0.005986030729187729
214	0x3f9db81d9a5406fb	0.02902265791363499
215	0x3fa21745b8fbac92	0.03533380396933085
216	0x3faff4242c1ca6cf	0.062409525284534355
217	0xbf8312ec29179426	-0.009313435558349136
218	0x3fb5a7ad95c48a23	0.08458981424750127
219	0x3f48d6ca3e0bf6d1	0.0007580268394062566
220	0xbfb9a08833a0bcd6	-0.10010577450224231
221	0x3f613aedc0634d5b	0.0021032947143823483
222	0x3f8c02a55ee2fe91	0.013676921804630456
223	0x3f95378b14dc3e4c	0.020719693325246077
224	0x3f6d0e365d883d7a	0.003546816046089138
225	0xbf88bd42bef34db5	-0.012079736187309157
226	0xbf610a245db7fc34	-0.0020800314212006347
227	0xbf87c1dac4b4b2a8	-0.011600216987596682
228	0x3fb77c688ded62dc	0.09174207177182886
229	0xbfb6c49d23c3e75a	-0.08893758891272566
230	0x3f9395f5cb9991db	0.0191267400281435
231	0x3fb65f91f9f2e214	0.08739578583016111
232	0xbfae1c84ed8e8a90	-0.05881133460868171
233	0x3fbbbd0421698a24	0.10835290733079056
234	0xbfabbabfb3b81090	-0.05415915554843409
235	0x3face0160e2fd8e7	0.056397141677665456
236	0xbfab69a015ae4a39	-0.053540232321342925
237	0x3fb3c8ac85d5f681	0.0772807909724751
238	0x3fa1f9dcb5ef2cef	0.03510942192914423
239	0x3fbb7dd86668a771	0.10738899707999196
240	0xbfa4252823c53b43	-0.03934598385477852
241	0xbf9fe86a52fa1c56	-0.03116003161860833
242	0xbf9a28211aabd71e	-0.02554370618141554
243	0xbfa8ac22068121a6	-0.04818826989555029
244	0x3fbb334bdd1cb662	0.10625147007223171
245	0xbf9a6f9de99a2146	-0.0258164094762219
246	0x3fc09ac08b6c7eef	0.12972266013911546
247	0xbf9a2455e46b54dc	-0.02552923399601502
248	0xbfb48e2b23b79734	-0.08029431936264758
249	0xbfa574b769a3adf9	-0.041906100888663596
250	0xbfbcbe95fc38db88	-0.11228310973898037
251	0x3fadeb82b8bbfdcb	0.05843742852266195
252	0x3fab8386bc4ec282	0.05373784111669001
253	0xbf838c69572c5e10	-0.00954515740663367
254	0x3f8a4f8a9d0fa02e	0.012847025793192381
255	0xbfa4724a68287021	-0.039934468474001734

bias f8 [100]
0	0x3fca23f7b787363b	0.20422264539085852
1	0x3fe920d6bd36c52c	0.7852586455902943
2	0x3ff6fbd96fbccb56	1.4364866604562017
3	0x3fd9eac6d2c0221a	0.4049546297178793
4	0xbffbee3876e34b7a	-1.745659317403549
5	0x3ff3109a63400d47	1.1915534855805434
6	0x3ff8b358d35e0f0d	1.5437858826198323
7	0xbfe228be52933e33	-0.5674735653682944
8	0xbfd37373674ced56	-0.303921557311431
9	0xbfd2453baca2f049	-0.28547565325766705
10	0xbfbf62bd92c23d2a	-0.12260041077592079
11	0xbfe720d5ccc1c53d	-0.7227581977041734
12	0x3ffeb45ad5396ba4	1.919031937510888
13	0xbfa0cb364b88117a	-0.03280038520827851
14	0xbfd761b6b741637d	-0.3653389730075601
15	0x3fd0bc71827f2f8c	0.26150167220907217
16	0x3fe16f5a281fc47c	0.5448427947686834
17	0xbff36e035b5edfec	-1.214358670154975
18	0x3ff01d9c970231e6	1.0072294138691347
19	0x3ff420e44f285dd0	1.2580302326294834
20	0x3fde825a0a01d3e9	0.4767060373044943
21	0x3ff14577d7711cea	1.0794599929520765
22	0xbff7d93503aa3cb1	-1.490529074016916
23	0x3ffd77b60c2ca300	1.8417263484536193
24	0x3fee4b23b5c7ef38	0.9466723013315237
25	0x3fdb8ff7317efe01	0.4306619628295892
26	0xbff84154e24ce4db	-1.51595009230214
27	0x3fe82cb817f56b26	0.7554588764136028
28	0x3fe853e002e22417	0.76023865283162
29	0xbfcf19f7ce607c93	-0.24297998024937736
30	0xbfca469e915aa18b	-0.20528013322224256
31	0x3fa784d6aba1bdc7	0.045935352755687435
32	0xbfd87f87e6660e2c	-0.3827838659273961
33	0xbfce650545536bfb	-0.23745790371944495
34	0x3f5ab4d483d08cb1	0.0016300273266629912
35	0x3fe4a12f839e131c	0.6446759768155945
36	0xbff1e19434708b4f	-1.117572979776657
37	0xc000a575487481cc	-2.0807901058726426
38	0xbfa1f15767a1abf7	-0.03504441394837692
39	0xbfef3e97ae187f29	-0.9763906860643817
40	0x3fe06f1cff6275b2	0.5135636318188317
41	0xbfc7e5d7bb7cb418	-0.18670174269337347
42	0x3fec077bc217b260	0.8759135046835347
43	0x3fd8ebaddf0241a1	0.3893847158260773
44	0x3fee54bd7c1557b3	0.9478442595961866
45	0xbfda928e36abdc04	-0.41519503916737244
46	0x3feba7215481e800	0.8641516352211056
47	0x3feb56a2ee532e40	0.8543257384093934
48	0xbfecb4a56d974f69	-0.8970515385103514
49	0xbfd8ff372a19e4ee	-0.3905771170753515
50	0xbfca442fe401bcef	-0.20520590432304384
51	0xbfdc36e60f76db9d	-0.44085074911293437
52	0x3fe49e94b68c23b7	0.6443580212954804
53	0xbfff53e91c4eeb54	-1.9579859834472773
54	0x3fc7e1bdfa71b157	0.1865766022559778
55	0xbfe1c6f48c6d7a5c	-0.5555365317084795
56	0xbfe0e3de82d948fb	-0.5278160625114475
57	0x40007a72605b3d5f	2.0597884681553036
58	0x3fd2e36573867881	0.29512916833653696
59	0xbfe9c505ed067a29	-0.8053006772423191
60	0xbfe15d83e4037b0a	-0.5426654294386435
61	0x3fdde6014e00c469	0.4671633970020311
62	0x3fe60953042c1fb6	0.6886382180682549
63	0x3fe21e5439582c90	0.5662022705086134
64	0x3fc59eff390d5651	0.168914702279539
65	0x3fd9cffab690bf1d	0.4033190520158188
66	0xbff0989fe34fc840	-1.0372618560181905
67	0x3ffce3cfadf39db4	1.8056179804787975
68	0x3fe2fd6ee8103c39	0.5934366734017039
69	0xbfebb87ce7812292	-0.8662704965182277
70	0x3feab21297d0fbcf	0.8342373814738212
71	0xbfb9132843e5abc1	-0.09794856698651612
72	0xbfe86fd282a0eb2e	-0.7636501838054295
73	0xbfee37e81e1bba5f	-0.9443245494893054
74	0xbfe0061df893676f	-0.5007467131610904
75	0xbfe6a586476da91e	-0.7077056307873908
76	0x3fcb58fe5d0f4fbc	0.213653369368897
77	0xbfe1c6236a8691d8	-0.5554368095950464
78	0x3fe8ed9eaaeeb473	0.779006322719978
79	0xbfb0cd197a6617a8	-0.06562957037212291
80	0xbff4605957ad2f24	-1.273522703634577
81	0x3fe374a2f90fe8b3	0.6079878677840241
82	0xbfecfa1c3019da76	-0.9055310191605048
83	0xbffbf29c5e065d48	-1.7467311547132613
84	0xbff2b7d9b909f676	-1.1698853710253423
85	0x3f98733cc54f46bb	0.023877095740153047
86	0xbfb033402a4e8b39	-0.06328202278977536
87	0xbff2c0c59cdd2a0a	-1.1720634582039815
88	0x3ff71a28dbb591b8	1.4438866217034114
89	0xbff1340393ad5729	-1.075198723663059
90	0x3fe6e2685dc83c0f	0.7151376563723505
91	0x3fe5a86d8e208d9c	0.6768100524827108
92	0xbfd3c29836ca0ef6	-0.3087521109630268
93	0x3fbfefba08e2546d	0.12475168911835662
94	0xbfc3f0a662975e07	-0.1557815534022071
95	0xbfec93232398b722	-0.8929610915417678
96	0x3fcd4792257e43d4	0.22874667006229166
97	0x3fe7458a2d5f7c17	0.7272387396041066
98	0x3ff267092b4ffaf8	1.1501552287951977
99	0xbf84d93b504f5b39	-0.010179961574903739
